…
2026-03-24 10:52:44 | INFO     | src.models.baseline_cnn |   Test       : 586 samples
2026-03-24 10:52:44 | INFO     | src.models.baseline_cnn |   Features   : 37
2026-03-24 10:52:44 | INFO     | src.models.baseline_cnn | 
Building Baseline CNN …
2026-03-24 10:52:44 | INFO     | src.models.baseline_cnn | Model: "baseline_cnn"
┏━━━━━━━━━━━━━━━━━━━━━━━━━━━━━━━━━━━━━━┳━━━━━━━━━━━━━━━━━━━━━━━━━━━━━┳━━━━━━━━━━━━━━━━━┓
┃ Layer (type)                         ┃ Output Shape                ┃         Param # ┃
┡━━━━━━━━━━━━━━━━━━━━━━━━━━━━━━━━━━━━━━╇━━━━━━━━━━━━━━━━━━━━━━━━━━━━━╇━━━━━━━━━━━━━━━━━┩
│ tabular_input (InputLayer)           │ (None, 37, 1)               │               0 │
├──────────────────────────────────────┼─────────────────────────────┼─────────────────┤
│ conv_1 (Conv1D)                      │ (None, 37, 32)              │              96 │
├──────────────────────────────────────┼─────────────────────────────┼─────────────────┤
│ bn_1 (BatchNormalization)            │ (None, 37, 32)              │             128 │
├──────────────────────────────────────┼─────────────────────────────┼─────────────────┤
│ relu_1 (Activation)                  │ (None, 37, 32)              │               0 │
├──────────────────────────────────────┼─────────────────────────────┼─────────────────┤
│ conv_2 (Conv1D)                      │ (None, 37, 64)              │           6,144 │
├──────────────────────────────────────┼─────────────────────────────┼─────────────────┤
│ bn_2 (BatchNormalization)            │ (None, 37, 64)              │             256 │
├──────────────────────────────────────┼─────────────────────────────┼─────────────────┤
│ relu_2 (Activation)                  │ (None, 37, 64)              │               0 │
├──────────────────────────────────────┼─────────────────────────────┼─────────────────┤
│ conv_3 (Conv1D)                      │ (None, 37, 128)             │          24,576 │
├──────────────────────────────────────┼─────────────────────────────┼─────────────────┤
│ bn_3 (BatchNormalization)            │ (None, 37, 128)             │             512 │
├──────────────────────────────────────┼─────────────────────────────┼─────────────────┤
│ relu_3 (Activation)                  │ (None, 37, 128)             │               0 │
├──────────────────────────────────────┼─────────────────────────────┼─────────────────┤
│ gap (GlobalAveragePooling1D)         │ (None, 128)                 │               0 │
├──────────────────────────────────────┼─────────────────────────────┼─────────────────┤
│ dense_1 (Dense)                      │ (None, 64)                  │           8,256 │
├──────────────────────────────────────┼─────────────────────────────┼─────────────────┤
│ dropout_1 (Dropout)                  │ (None, 64)                  │               0 │
├──────────────────────────────────────┼─────────────────────────────┼─────────────────┤
│ output (Dense)                       │ (None, 3)                   │             195 │
└──────────────────────────────────────┴─────────────────────────────┴─────────────────┘
 Total params: 40,163 (156.89 KB)
 Trainable params: 39,715 (155.14 KB)
 Non-trainable params: 448 (1.75 KB)

2026-03-24 10:52:44 | INFO     | src.models.baseline_cnn | Total parameters: 40,163
2026-03-24 10:52:44 | INFO     | src.models.baseline_cnn | Class weights: {0: np.float64(0.556), 1: np.float64(1.201), 2: np.float64(2.725)}
…
2026-03-24 11:33:32 | INFO     | src.models.genesis_cnn |   Features   : 37
2026-03-24 11:33:32 | INFO     | src.models.genesis_cnn | 
Building Genesis CNN (dual-branch) …
2026-03-24 11:33:32 | INFO     | src.models.genesis_cnn | Model: "genesis_cnn"
┏━━━━━━━━━━━━━━━━━━━━━━━━━━━━━━━┳━━━━━━━━━━━━━━━━━━━━━━━━━━━┳━━━━━━━━━━━━━━━━━┳━━━━━━━━━━━━━━━━━━━━━━━━━━━━┓
┃ Layer (type)                  ┃ Output Shape              ┃         Param # ┃ Connected to               ┃
┡━━━━━━━━━━━━━━━━━━━━━━━━━━━━━━━╇━━━━━━━━━━━━━━━━━━━━━━━━━━━╇━━━━━━━━━━━━━━━━━╇━━━━━━━━━━━━━━━━━━━━━━━━━━━━┩
│ tabular_input (InputLayer)    │ (None, 37, 1)             │               0 │ -                          │
├───────────────────────────────┼───────────────────────────┼─────────────────┼────────────────────────────┤
│ local_b1_conv (Conv1D)        │ (None, 37, 32)            │              96 │ tabular_input[0][0]        │
├───────────────────────────────┼───────────────────────────┼─────────────────┼────────────────────────────┤
│ global_b1_conv (Conv1D)       │ (None, 37, 32)            │             224 │ tabular_input[0][0]        │
├───────────────────────────────┼───────────────────────────┼─────────────────┼────────────────────────────┤
│ local_b1_bn                   │ (None, 37, 32)            │             128 │ local_b1_conv[0][0]        │
│ (BatchNormalization)          │                           │                 │                            │
├───────────────────────────────┼───────────────────────────┼─────────────────┼────────────────────────────┤
│ global_b1_bn                  │ (None, 37, 32)            │             128 │ global_b1_conv[0][0]       │
│ (BatchNormalization)          │                           │                 │                            │
├───────────────────────────────┼───────────────────────────┼─────────────────┼────────────────────────────┤
│ local_b1_relu (Activation)    │ (None, 37, 32)            │               0 │ local_b1_bn[0][0]          │
├───────────────────────────────┼───────────────────────────┼─────────────────┼────────────────────────────┤
│ global_b1_relu (Activation)   │ (None, 37, 32)            │               0 │ global_b1_bn[0][0]         │
├───────────────────────────────┼───────────────────────────┼─────────────────┼────────────────────────────┤
│ local_b2_conv (Conv1D)        │ (None, 37, 64)            │           6,144 │ local_b1_relu[0][0]        │
├───────────────────────────────┼───────────────────────────┼─────────────────┼────────────────────────────┤
│ global_b2_conv (Conv1D)       │ (None, 37, 64)            │          10,240 │ global_b1_relu[0][0]       │
├───────────────────────────────┼───────────────────────────┼─────────────────┼────────────────────────────┤
│ local_b2_bn                   │ (None, 37, 64)            │             256 │ local_b2_conv[0][0]        │
│ (BatchNormalization)          │                           │                 │                            │
├───────────────────────────────┼───────────────────────────┼─────────────────┼────────────────────────────┤
│ global_b2_bn                  │ (None, 37, 64)            │             256 │ global_b2_conv[0][0]       │
│ (BatchNormalization)          │                           │                 │                            │
├───────────────────────────────┼───────────────────────────┼─────────────────┼────────────────────────────┤
│ local_b2_relu (Activation)    │ (None, 37, 64)            │               0 │ local_b2_bn[0][0]          │
├───────────────────────────────┼───────────────────────────┼─────────────────┼────────────────────────────┤
│ global_b2_relu (Activation)   │ (None, 37, 64)            │               0 │ global_b2_bn[0][0]         │
├───────────────────────────────┼───────────────────────────┼─────────────────┼────────────────────────────┤
│ local_gap                     │ (None, 64)                │               0 │ local_b2_relu[0][0]        │
│ (GlobalAveragePooling1D)      │                           │                 │                            │
├───────────────────────────────┼───────────────────────────┼─────────────────┼────────────────────────────┤
│ global_gap                    │ (None, 64)                │               0 │ global_b2_relu[0][0]       │
│ (GlobalAveragePooling1D)      │                           │                 │                            │
├───────────────────────────────┼───────────────────────────┼─────────────────┼────────────────────────────┤
│ merge (Concatenate)           │ (None, 128)               │               0 │ local_gap[0][0],           │
│                               │                           │                 │ global_gap[0][0]           │
├───────────────────────────────┼───────────────────────────┼─────────────────┼────────────────────────────┤
│ dense_1 (Dense)               │ (None, 128)               │          16,512 │ merge[0][0]                │
├───────────────────────────────┼───────────────────────────┼─────────────────┼────────────────────────────┤
│ dropout_1 (Dropout)           │ (None, 128)               │               0 │ dense_1[0][0]              │
├───────────────────────────────┼───────────────────────────┼─────────────────┼────────────────────────────┤
│ dense_2 (Dense)               │ (None, 64)                │           8,256 │ dropout_1[0][0]            │
├───────────────────────────────┼───────────────────────────┼─────────────────┼────────────────────────────┤
│ dropout_2 (Dropout)           │ (None, 64)                │               0 │ dense_2[0][0]              │
├───────────────────────────────┼───────────────────────────┼─────────────────┼────────────────────────────┤
│ output (Dense)                │ (None, 3)                 │             195 │ dropout_2[0][0]            │
└───────────────────────────────┴───────────────────────────┴─────────────────┴────────────────────────────┘
 Total params: 42,435 (165.76 KB)
 Trainable params: 42,051 (164.26 KB)
 Non-trainable params: 384 (1.50 KB)

2026-03-24 11:33:32 | INFO     | src.models.genesis_cnn | Total parameters: 42,435
2026-03-24 11:33:32 | INFO     | src.models.genesis_cnn | Class weights: {0: np.float64(0.556), 1: np.float64(1.201), 2: np.float64(2.725)}
…
